L15/AlphaZero/best_policy.model (torch_old, 419433 bytes, 15 tensors)

conv1.weight f4 [32, 4, 3, 3]
000000 c5 0f f4 3e 08 d6 5a bf 8f ae 60 3e 58 c9 ee be
       0.4766828 -0.85482836 0.21941589 -0.46637988
000010 3d 03 ec 3e bb 72 85 3e e5 b5 0f bf 5d 14 64 3d
       0.4609622 0.26064095 -0.56136924 0.055683482
000020 21 0c 54 bf 56 db 26 3d cc 62 0e bf 80 6b e7 3d
       -0.8283101 0.04073652 -0.556195 0.11299801
000030 90 da 57 bd 61 a4 39 3e 22 6f 82 be fe a1 44 3e
       -0.05269867 0.18129112 -0.25475413 0.1920242
000040 28 e0 20 bd f5 92 9f 3d 58 bd 3c 3d 59 82 96 bd
       -0.039276272 0.07791702 0.04607901 -0.073490806
000050 2e 5b 3c be 11 70 ff bd 17 c0 98 3c db 9e 65 bd
       -0.18394157 -0.12472547 0.018646283 -0.0560597
000060 21 e5 04 be 41 ef 4e 3d cd fd 9d bc ab 6a 13 be
       -0.1297803 0.05052114 -0.01928606 -0.1439616
000070 1c e2 cc bd 6a 52 5e bc a2 70 1f bd ac ba 9c 3d
       -0.100040644 -0.013569454 -0.038925774 0.07652792
000080 ab 2b 2e 3e fc 95 34 be 86 55 a7 3d 76 8d 1f 3d
       0.17008846 -0.1763534 0.08170609 0.038953267
000090 f5 f8 aa 3e aa 5d 0c 3e 47 5c 2d 3f 0b 3e 9d bd
       0.33393064 0.13707605 0.6771893 -0.076778494
0000a0 69 d7 80 bc 90 8b 9f be d2 46 0a bf b3 4a ac 3e
       -0.015727716 -0.31161165 -0.54014313 0.3365074
0000b0 2b 07 21 3e 84 90 16 bf 85 78 77 be 5f c3 ea bd
       0.1572539 -0.58814263 -0.24167068 -0.11463045
0000c0 8f cb a1 3e d8 7b 10 3f 81 ff 2a be 3a 88 4d 3e
       0.31600615 0.5643897 -0.1669903 0.20071498
0000d0 c4 b4 8a be ed c2 91 be 76 c4 48 3d 55 f4 68 3d
       -0.27091038 -0.2846903 0.049015485 0.05687364
0000e0 ef 51 cd bd ba 39 fb 3b 9b 1a 35 3d 43 44 66 3e
       -0.10025393 0.0076667937 0.044214826 0.22486977
0000f0 99 95 1e 3e 62 b3 e5 b9 72 4d 1f 3e 58 9e e2 bd
       0.15486754 -0.00043811934 0.15556887 -0.11065358
000100 4d 90 ff bd c9 12 ca 3d ae c5 d3 3d 88 a2 11 be
       -0.12478695 0.09866864 0.10340439 -0.14222157
000110 7e 3c 0e 3e f5 2d 9f bd 41 27 eb 3d ef 3d f8 3c
       0.13890263 -0.077724375 0.114820965 0.03030297
000120 ee cd c9 be d9 70 c9 3e 5c 96 8f 3d c5 28 aa 3b
       -0.39414924 0.39343908 0.07011101 0.0051928484
000130 8f df 6a be 77 67 42 3e 02 01 1c be c8 1b a1 3e
       -0.22936843 0.18984781 -0.1523476 0.31466508
000140 4c 53 10 3c e5 4c e4 3e 58 84 bf be 67 4d 87 be
       0.008808922 0.44589916 -0.37405658 -0.2642624
000150 7c 5b fe be 42 c0 bd 3e a1 55 90 be b1 36 eb be
       -0.49679172 0.37060744 -0.2819033 -0.45940164
000160 24 91 a1 be b2 64 0b be 5c 8c e7 bc 14 6d 49 be
       -0.31556046 -0.13612631 -0.02826517 -0.19670516
000170 01 4d c5 bc 48 1c 64 3b 37 b9 66 bd 91 6f 2e 3e
       -0.02408457 0.0034806896 -0.05632898 0.17034747
000180 17 60 52 be 99 55 00 3e ca 2d a6 bb ae 7b 74 be
       -0.20544468 0.12532653 -0.0050713765 -0.23875305
000190 fa de 7d be b8 1e e8 be d0 31 37 bc 7c fe 04 be
       -0.2479209 -0.45335937 -0.01118131 -0.12987703
0001a0 47 39 bc bd b3 7b 1c be 60 21 ec 3d 2f 74 d8 bd
       -0.09190612 -0.15281563 0.11529803 -0.10569035
0001b0 04 c5 7d 3e b5 61 46 3b 0c b9 a6 3e 1f a6 a7 be
       0.24782187 0.003027064 0.32563055 -0.32743928
0001c0 98 ea 99 3e 34 8e d8 be 23 fa 58 3e a7 0d 75 be
       0.30061793 -0.42295992 0.2118917 -0.23930989
0001d0 1a eb 1e be 79 4b 03 3e 7a c0 63 3e e3 ac 80 be
       -0.15519372 0.1282176 0.22241393 -0.25131902
0001e0 a3 b8 4d be 10 59 d9 3d e2 3d 4f be 86 c3 84 3e
       -0.20089965 0.106126904 -0.2023845 0.25930423
0001f0 a7 54 a5 3e 91 b4 b5 3d 0a 65 4e 3d 20 92 04 3d
       0.32291147 0.08872331 0.050389327 0.03236592
000200 47 75 00 bc 03 94 6b 3d 98 a8 da 3c 86 c9 f5 3d
       -0.007840461 0.0575142 0.02669172 0.12001328
000210 b3 bd 23 be 98 d3 5e 3d 09 73 e4 3c a4 a0 a3 bc
       -0.15990333 0.05440101 0.027886884 -0.01997406
000220 d3 f5 d7 bd 3b d8 36 bd 8e ba 83 bd 7a c1 03 be
       -0.10544934 -0.044639807 -0.06432067 -0.12866774
000230 8a 98 55 bd e6 aa 95 3c c8 d3 46 3c bc 09 91 3d
       -0.052147426 0.018269967 0.0121354535 0.07081935
000240 b5 97 ad bc 9d ea f5 be 06 2b 3c be 43 2b 03 3e
       -0.021190504 -0.48030558 -0.18375787 0.12809472
000250 57 e7 ae 3e 13 2f 0d bd 68 66 4c 3f d4 db 0c 3e
       0.34160873 -0.03446872 0.7984376 0.13755733
000260 c7 75 b7 bd d0 90 f7 bd 02 0a c4 be 5f 96 ab bd
       -0.08958011 -0.12088168 -0.38288885 -0.083782904
000270 67 1f 9f 3d 1d 34 6f 3b 36 7a bd 3c 41 25 13 be
       0.077696614 0.0036499568 0.023129564 -0.1436968
000280 90 3c 8a be 65 45 df bc 23 72 b0 bd e1 59 a9 bd
       -0.2699933 -0.02725477 -0.0861552 -0.08269096
000290 2f 05 e0 3d f9 20 2f 3c 02 7c 05 be db 73 0a be
       0.10938489 0.010689014 -0.13035586 -0.13520758
0002a0 04 e5 b1 bd 97 6c bd 3d e0 09 36 3e 66 0b 3a 3e
       -0.086862594 0.092492275 0.17777205 0.1816841
0002b0 17 11 a6 3d da 33 1e be b9 cf 3e 3e af 33 c4 bd
       0.081087284 -0.15449467 0.18633927 -0.0958017
0002c0 32 40 3b bc 63 f7 92 bd a7 05 e8 bd c8 69 ed 3d
       -0.01142888 -0.071760915 -0.11329203 0.11592442
0002d0 7e 68 c3 be 1a ec 83 be f4 41 f1 be 66 ab 01 bf
       -0.3816566 -0.2576607 -0.4712063 -0.5065216
0002e0 05 09 85 bd a1 8f 65 3e fb 5b b6 3c c1 6e 1f bd
       -0.06495861 0.22418071 0.022260657 -0.038923983
0002f0 64 fc 7f 3e 7b cf 4f 3e 36 92 0f 3f 5e 6e 58 3e
       0.24998623 0.20293991 0.56082475 0.21135852
000300 84 c7 95 3e c0 18 04 3e 3a 44 0c be 0b 7a 90 bd
       0.2925378 0.12900066 -0.13697901 -0.07054528
000310 cd 9a 98 3e 84 81 ba bd 6f a1 ad 3c df e4 2b bd
       0.29805604 -0.091067344 0.021195142 -0.041966315
000320 eb 79 cf bd 68 3a c2 bd a2 42 a8 bc 79 29 38 be
       -0.10130676 -0.09483796 -0.020539586 -0.1798457
000330 ea 22 d7 bd e4 f0 29 be 46 d9 41 be e1 a6 df 3d
       -0.10504706 -0.16595799 -0.1893054 0.109205015
000340 77 2c 60 3d d1 17 fe 3d 1c 72 d7 bd bb 5f fb 3c
       0.054729905 0.12406886 -0.105198115 0.030685296
000350 df b2 b1 bc aa ac fc 3d 49 ef 0b be e7 15 88 3c
       -0.021691738 0.123376206 -0.13665499 0.016612006
000360 32 e1 ae be 5a ad 7f bd 3f 38 b6 3e 3b db 87 3e
       -0.34156185 -0.06242118 0.35589787 0.26534447
000370 0a fe 51 bd 2f ec 08 3f ce 16 6c 3e 43 03 c7 3d
       -0.05126766 0.5348539 0.23055574 0.09717419
000380 db f2 56 3c c8 3c 73 3e a8 38 5f be ce ad 87 be
       0.013119425 0.23753655 -0.21798956 -0.2649979
000390 fb 70 96 bd 65 9e ae 3e c8 0b a1 3d 50 74 44 3e
       -0.07345768 0.3410522 0.07863575 0.19184995
0003a0 4e b2 c1 be fc c3 a9 be 15 6b 07 bd 88 8b e0 3d
       -0.37831348 -0.33157337 -0.033061106 0.109641135
0003b0 e2 24 e7 bd 23 03 8a 3e ee 5f ff bc 8d e9 81 3c
       -0.11286332 0.26955518 -0.031173673 0.015858436
0003c0 1e 19 7d be 3c 68 58 3e 15 9d 92 be 75 ec e2 bc
       -0.24716613 0.21133512 -0.2863547 -0.027700642
0003d0 01 aa df bd 10 8f 29 be 3d fa 04 3e dd 32 e6 bc
       -0.109210975 -0.1655848 0.12986083 -0.028100425
0003e0 a7 3b d1 3c 77 2b b4 bd e4 15 23 3e 9a 53 bb bc
       0.02554114 -0.08797353 0.1592632 -0.022867013
0003f0 85 16 40 3c 3f ee 51 3e 79 e7 c0 be 2b 66 ae bd
       0.011724119 0.2050104 -0.376766 -0.08515581

conv1.bias f4 [32]
000000 a2 5d e3 3d ae e8 f7 bd aa a3 18 bd 90 64 81 be
       0.111018434 -0.12104927 -0.037265457 -0.25272036
000010 d7 f7 c3 3d 12 8f ec bc 6a 1b f5 bd c6 56 cf 3d
       0.09568756 -0.028876815 -0.119681194 0.101239726
000020 54 86 25 be b8 3f ce bc f8 2a 62 be 2c e9 e9 3d
       -0.16164523 -0.025176868 -0.22086704 0.11421427
000030 d0 87 4b 3e c8 4e 9f bd 8e a8 49 be 23 ca c7 3d
       0.19876027 -0.07778698 -0.19693205 0.097553514
000040 83 33 1a be ca c5 21 be 12 7c 58 be c9 cf 6c be
       -0.15058713 -0.15798107 -0.21141079 -0.23126139
000050 b8 a1 fd bd 84 08 df bd 1b 4c d4 bd 6a d5 4d 3c
       -0.12384361 -0.10890296 -0.103660785 0.012563089
000060 26 c7 07 be e5 21 c2 bd 8a 31 03 be 60 88 24 3d
       -0.13259563 -0.09479121 -0.12811866 0.04016912
000070 8c 48 a6 bd 51 a8 49 3e 1b 73 d6 bd 23 07 c2 bd
       -0.08119306 0.19693114 -0.104711734 -0.094740175

conv2.weight f4 [64, 32, 3, 3]
000000 dd b4 9b bc 79 9e 01 bd 1b 30 5f bd 32 0d 97 bc
       -0.01900714 -0.031645272 -0.054489236 -0.01843891
000010 bf 1e ff bc ee 3d 73 bd bc 40 5a bd 35 d1 93 bc
       -0.03114259 -0.059385233 -0.05328439 -0.018044094
000020 48 e7 23 bc bc 75 7e bc 26 6a 75 bd 81 4a 79 bc
       -0.010003872 -0.015531 -0.059915684 -0.015215517
000030 42 5c 5d bd d4 06 17 bc 10 d4 13 bd 78 b7 cb bc
       -0.054043062 -0.009217937 -0.03609091 -0.024867758
000040 70 9b 14 3b c2 ac fc bc ee af b9 bb cd 76 9e 3b
       0.0022675656 -0.030844096 -0.0056667244 0.0048359395
000050 82 5a 0f 3c 7f a0 79 3b 4d b4 81 3b e9 7a ec 3b
       0.008749606 0.0038090048 0.003958261 0.0072168005
000060 b9 2c e1 bb 17 d1 60 3b 16 29 84 bb 49 f7 39 3c
       -0.0068717864 0.0034304315 -0.004033218 0.011350461
000070 8a 1c 9c 3c 19 85 2f 3c 05 98 0c 3c 02 fd c7 3c
       0.019056577 0.010712885 0.008581166 0.024412636
000080 de 3a 2e 3b 0a 66 95 3b 57 0e 5d 3c 2e 63 32 3c
       0.002658538 0.004559283 0.013492188 0.010887904
000090 25 06 01 bd 9a 5d d7 bc 4b 64 8a 3b cd e4 14 bd
       -0.0315 -0.02628975 0.0042233816 -0.036351014
0000a0 0f 23 d1 bc c4 c0 a1 bc 55 ab 96 bc 21 b5 b3 bc
       -0.025529413 -0.019745238 -0.018392244 -0.021936955
0000b0 ee 1c c4 bc af a4 5f bd fd 98 19 bd 55 db a4 bd
       -0.023939576 -0.054600414 -0.037499417 -0.08049647
0000c0 af 62 50 bd de 9c b1 bd af 18 24 bd 92 e0 65 bc
       -0.050875362 -0.08672498 -0.040062603 -0.0140305925
0000d0 3f 6e a4 bd 3d e8 d4 bc 00 bf 16 bc 02 10 24 bd
       -0.0802884 -0.025989646 -0.009200811 -0.04005433
0000e0 03 27 75 3c c8 67 57 bd d6 1b 2e bd 05 2e 07 bd
       0.014962914 -0.052589208 -0.042507015 -0.033002872
0000f0 1a 7c 0c bc 45 e0 1b bd bb 79 5d 3b 07 52 73 bd
       -0.00857451 -0.038055677 0.003379448 -0.0594044
000100 c1 e8 02 bd cb c4 97 bd 98 f0 9d bd 2a 65 8d bd
       -0.031960253 -0.07410582 -0.07711905 -0.06904061
000110 21 da 82 bd e1 ef 59 bd 5a 8a 14 bd 45 e8 95 bd
       -0.06389261 -0.053207282 -0.036264755 -0.073196925
000120 c6 82 c5 3b e5 41 e0 bc 96 cf 5b bc 37 d1 ca ba
       0.0060275523 -0.027375171 -0.013416192 -0.0015473728
000130 39 98 45 bc 10 dd 68 3c 3b 1f 46 bc 81 0b cb 3b
       -0.0120602185 0.014212862 -0.012092407 0.0061964397
000140 f4 95 9c 3c e4 c1 af bc df 0a 10 bc 20 d1 0c 3c
       0.019114472 -0.021454759 -0.008791654 0.008594781
000150 d2 ce 42 bd 9d fa 56 bd 27 ae 7a 3c 9d 08 bf bb
       -0.04756052 -0.052485097 0.01530031 -0.005829884
000160 27 1e 11 bd e9 a2 27 bd a8 b5 2a ba 2b 53 98 bb
       -0.035429146 -0.040926848 -0.0006512054 -0.0046485863
000170 80 47 39 3b 03 31 aa bb 2f 0d ef 3b 1a 03 1a 3c
       0.0028271377 -0.005193831 0.007295273 0.0094001535
000180 6c a9 79 ba cb 02 e2 3a b3 32 b9 3b 0f 89 40 3b
       -0.0009523842 0.0017243264 0.005651796 0.0029378568
000190 f7 7d 11 3c a9 94 59 bc c8 0f d3 bc bd d3 b4 bb
       0.00888013 -0.013280072 -0.025764361 -0.005518405
0001a0 bb 4f 9b 3c c2 5a 2d bd 87 dd 41 bc c8 07 81 3c
       0.018958917 -0.04232288 -0.011832601 0.01575078
0001b0 69 cd c2 3b 0a 3d 16 bc 0f 58 f9 bc e3 85 a9 bc
       0.005944897 -0.009169826 -0.030437497 -0.020693725
0001c0 a4 d1 25 bd f9 57 19 3c 86 00 b0 bc 01 99 d4 bc
       -0.040483132 0.009359353 -0.021484625 -0.025951864
0001d0 8e 0d a3 3c 09 bb 1c bc 41 f0 c7 bb 41 1f 4a bc
       0.019903924 -0.009566077 -0.0061016385 -0.012336553
0001e0 c1 95 33 bc bc 45 69 bc 5e 0f 2f bc b1 01 a8 bb
       -0.010960997 -0.014237817 -0.010684816 -0.0051271548
0001f0 0e dd ca ba 39 d5 ee bb 11 5f 41 3b fb 38 8b bc
       -0.0015477256 -0.0072886017 0.0029506127 -0.016994944
000200 d6 c8 f5 bc d5 36 b8 bc 6d a6 ff bc 7a 29 d0 bc
       -0.030002993 -0.022487083 -0.031207288 -0.025410403
000210 17 07 01 bd 3d 1f 29 bd 43 22 b6 bc 6e 6b b8 bc
       -0.031500902 -0.041289557 -0.022233134 -0.022512164
000220 00 01 3f bd ba fe a1 bc e1 af 1b bc e1 04 4d bd
       -0.046631813 -0.019774783 -0.009502382 -0.05005348
000230 5d 2e 0e bd 49 d4 08 bc a7 28 65 bd 74 39 4b bd
       -0.034712184 -0.008351394 -0.055946972 -0.04961534
000240 d2 09 8a ba fd 6b 14 3c c4 4d cd bb 05 41 8f bc
       -0.0010531491 0.00905895 -0.006265374 -0.017487058
000250 8c 1c 19 bd d6 59 4c 3c 29 e9 8a bc 09 10 25 bc
       -0.03738074 0.01247259 -0.016956883 -0.010074624
000260 13 b1 bf 3b c9 de 3d bb 0e e7 de bc 6e 32 e2 ba
       0.0058499663 -0.0028971902 -0.027209785 -0.0017257461
000270 fe 35 f0 bc f3 c6 e0 bc ba 3c 5d bc 35 0e 17 bd
       -0.02932262 -0.027438616 -0.013503248 -0.036878783
000280 70 1e e4 bc 84 e9 da bb 37 3c ff 3b 04 6a a4 3b
       -0.027846545 -0.0066806693 0.0077891606 0.005017521
000290 e8 1f 56 3b ae 86 30 3b 38 3a 34 3c b0 21 56 3c
       0.0032672826 0.0026935744 0.011000209 0.013069555
0002a0 8c ec 7f 3b 0f df bc 3b 7f 03 44 3c 8e fe 8d bb
       0.0039050905 0.0057638953 0.011963724 -0.004333324
0002b0 1e 02 93 3b be 32 47 3c bd 2d 72 bc ed b0 b3 3b
       0.0044863364 0.012158094 -0.014781413 0.0054837377
0002c0 3e d2 46 3c 4a 91 94 3b 6f 0c fc 3b 99 9a c0 39
       0.012135087 0.0045339214 0.007691912 0.00036736278
0002d0 59 e6 82 b9 84 a6 c2 ba f6 77 87 bb bc b5 8f bc
       -0.00024967155 -0.0014850651 -0.0041341735 -0.017542712
0002e0 2b 04 c1 bc ae 0b d3 3c 9f 6e 9a bb 31 9b fe bb
       -0.023561558 0.025762405 -0.004712894 -0.007769965
0002f0 0a fa 37 3c f2 e0 8e 3b 26 96 ba 3c a0 a5 d9 3c
       0.011229048 0.0043603117 0.022776674 0.026568234
000300 3c a3 45 bc fe c3 87 3c 77 c0 26 bc 1a 33 43 bb
       -0.012062844 0.016572949 -0.010177723 -0.0029785098
000310 ec 19 34 bb e2 9b 69 bc 84 ea 35 3c b3 29 ae bc
       -0.002748127 -0.014258357 0.011103276 -0.021260118
000320 c3 78 4c 3c cf 97 f6 bc f6 f4 f7 bc ed eb cf b9
       0.012479964 -0.030101685 -0.030268174 -0.00039657895
000330 2f a2 df bc 58 29 b0 bc cb 6c db bc e9 d6 2a bd
       -0.027299015 -0.02150409 -0.026785275 -0.04170886
000340 8e 45 f3 bc 34 fe a8 bd 7a 78 1b bd 74 ef e0 bc
       -0.029696252 -0.082516104 -0.037956692 -0.02745793
000350 70 ea 89 bd 9c 9d 90 bd 49 bc 56 bd 71 26 85 bc
       -0.067341685 -0.070613116 -0.052425656 -0.016253682
000360 33 ea ba b0 67 57 8d b5 c1 a2 28 b7 49 2a 39 a7
       -1.3599845e-09 -1.0530756e-06 -1.0051474e-05 -2.569683e-15
000370 22 a6 3f b1 c5 e4 96 b6 85 a5 5f aa 60 a0 2a b2
       -2.7888594e-09 -4.4969806e-06 -1.9863805e-13 -9.931767e-09
000380 7c 39 4a b4 29 82 9c bc 0a 35 8f bd 25 ae 18 bd
       -1.8833629e-07 -0.019105034 -0.06992538 -0.037275452
000390 3a 12 6d bd b0 40 18 bd 47 c8 17 bd 98 e8 20 bc
       -0.05787871 -0.037171066 -0.037056234 -0.00982108
0003a0 0a d2 9f bc da 98 78 39 a1 d4 84 3c 75 ac 20 3c
       -0.019509334 0.00023708065 0.01621467 0.009806742
0003b0 71 43 8d 3b 8f 45 39 bc a5 8c ed 3c 09 b7 ae 3c
       0.004311018 -0.011308088 0.028997729 0.021327512
0003c0 21 33 b4 3a bf a7 77 bc 6f ec 2d 3d 8b f9 74 bd
       0.0013748148 -0.015115677 0.04246181 -0.059808295
0003d0 ec 77 8d bb 30 a0 ea 3c b5 8a 96 bc 90 8b 5d ba
       -0.0043172743 0.028640836 -0.018376688 -0.00084512774
0003e0 07 a3 32 bc 9c 8a f2 bc 2b 26 fe bc e3 d9 93 3c
       -0.010903127 -0.02960711 -0.03102406 0.018048232
0003f0 57 01 09 bd 7f bf a1 bc 9b 14 c4 bb cc e6 35 bc
       -0.033448543 -0.019744633 -0.0059839017 -0.01110239

conv2.bias f4 [64]
000000 33 ac a7 bd 65 43 0c 3d 49 9a b6 bd b0 b6 db bd
       -0.08187141 0.03424396 -0.08916146 -0.10728204
000010 32 81 37 3d f5 fc 15 be 36 37 98 bd 34 fd b6 bc
       0.044800945 -0.14647277 -0.07432406 -0.022337534
000020 f3 c1 00 be 47 63 27 3d 62 65 4d be 04 7d 98 bc
       -0.12573986 0.040866163 -0.20058206 -0.0186143
000030 ec 5a 03 be bf ab 32 bd 47 6d 91 bd 55 76 28 3e
       -0.12827653 -0.04362082 -0.07100921 0.1645139
000040 48 9c 31 be a3 e6 52 be 11 1c c3 3c 64 90 b8 ba
       -0.17344773 -0.20595793 0.023817094 -0.0014081118
000050 c1 87 33 be 8f d1 cd bc 8d 4b dc 3b 11 4e 7d bd
       -0.17532255 -0.02512434 0.0067228735 -0.061842028
000060 d5 1e 12 bd 44 6c a3 bd 30 a5 6d bd 94 01 f6 bd
       -0.035673935 -0.079796344 -0.058018863 -0.1201202
000070 2f 0b ad bd f5 49 a3 3c d2 cd 83 bd d5 2f 76 bd
       -0.08449399 0.019932726 -0.064357415 -0.06010421
000080 f6 30 5d bc da b7 ae bb 16 8c 7c bd 35 94 7e bd
       -0.013500443 -0.0053319754 -0.061657034 -0.06215306
000090 57 63 9a bd bb 8a bf bc bc 5d 6e bd 0b 29 a8 bd
       -0.07538479 -0.023381582 -0.05819486 -0.08210953
0000a0 67 29 2f bd c2 c0 15 be b0 3e 2a bd 8a 32 28 bd
       -0.042764094 -0.14624313 -0.04156369 -0.041063823
0000b0 3f 79 a5 bd a7 40 60 bd bc e6 0e be 10 05 04 be
       -0.080797665 -0.054749157 -0.13955206 -0.12892556
0000c0 98 a1 50 bd 02 1e 58 bd 51 68 f9 bd 12 92 43 3e
       -0.050935358 -0.052762993 -0.121781 0.1909869
0000d0 91 ff 34 bd 3a b6 c0 3b 3b 4b 54 b9 48 2c 68 bd
       -0.04418904 0.005881098 -0.00020245921 -0.056682855
0000e0 a0 ba 9c bd 07 ca 8d bd ad 65 18 3d bd c7 9d bc
       -0.076527834 -0.06923299 0.03720634 -0.019260282
0000f0 af 0d 10 bd c9 28 35 be 74 7a a5 bd 82 d6 83 bd
       -0.0351693 -0.1769134 -0.08079997 -0.064373985

conv3.weight f4 [128, 64, 3, 3]
000000 d8 60 08 89 19 c8 00 00 ab f8 06 80 ad 56 1b 9f
       -1.641594e-33 7.1782e-41 -6.40218e-40 -3.2894223e-20
000010 38 7b 05 80 88 89 2b 80 bb 17 11 00 02 e5 03 80
       -5.0338e-40 -3.998263e-39 1.569716e-39 -3.57659e-40
000020 a5 74 12 80 d3 8d 5b 3e 13 dc 25 3e 4b c9 0a be
       -1.694883e-39 0.2144082 0.16197233 -0.1355335
000030 51 74 bb 3d e5 d3 66 bd 2c a2 79 3c 3f 85 75 3e
       0.09153045 -0.056354422 0.015236419 0.2397661
000040 1f c4 59 3e 11 f7 6d 3c c5 76 aa 3e 9a d9 2c 3c
       0.2126622 0.014524237 0.3329374 0.010549927
000050 c9 12 8b be e3 0d ea bd 89 f4 d1 3b 55 1f 27 3d
       -0.2716277 -0.1142843 0.0064073247 0.040801365
000060 e8 e7 dc be 30 47 66 3e 66 b6 b8 be c0 47 11 3e
       -0.4314568 0.22488093 -0.3607666 0.14187527
000070 90 9c 7a 3e a9 fb 8e 3e f9 b7 14 3e 35 1a e3 3e
       0.24473786 0.27926376 0.14523305 0.44355932
000080 d3 ff a4 3e 9e 52 81 bd e4 7a a0 bd 78 59 05 3e
       0.32226428 -0.06314586 -0.078359395 0.13022411
000090 30 37 eb bd fb d0 8a 3c e2 53 86 3d 7b bb 3c be
       -0.114851356 0.016945353 0.06558968 -0.18430893
0000a0 f0 15 12 3e a5 fd 0a 3e ce 42 3a 3c c2 44 32 be
       0.14266181 0.1357332 0.011368467 -0.17409042
0000b0 34 42 d4 3d 34 8e 02 be 98 d9 00 bc e1 f7 0e 3f
       0.1036419 -0.12749559 -0.007864378 0.55846983
0000c0 eb 8d 31 3d f7 46 91 be 03 00 fe 3d e8 10 e6 ba
       0.043348234 -0.28374454 0.12402346 -0.0017552646
0000d0 0a 04 cb bd df 7b 49 3e d5 c5 a2 be 82 04 42 be
       -0.0991288 0.1967616 -0.3179156 -0.18947032
0000e0 f9 74 1c be cb c7 34 be 99 4e 5c 3e 41 57 cc be
       -0.15278997 -0.1765434 0.21514358 -0.3991032
0000f0 3e 74 b8 be 55 63 02 be f8 be e3 bb 33 aa 38 bd
       -0.36026186 -0.12733205 -0.0069502555 -0.04508419
000100 02 03 70 3d 46 69 11 3e b3 fe 0c 3e a7 1a 4b 3e
       0.05859662 0.14200315 0.13769035 0.19834386
000110 37 03 b6 3d de ae 13 3c ff f9 21 bc 02 6d d9 bd
       0.08887332 0.00901386 -0.009886264 -0.10616495
000120 72 17 6e bd 86 20 19 bd 16 a1 89 be e9 d4 3d be
       -0.058127828 -0.037384532 -0.2688071 -0.1853825
000130 8b 78 30 be d7 68 81 3d 5c b5 96 bd e9 3e 6f bd
       -0.17233483 0.06318825 -0.0735881 -0.058409605
000140 e7 d7 6a be f9 aa cb bc b5 26 38 bd ad 6b da bd
       -0.22933923 -0.0248618 -0.04495879 -0.10665069
000150 05 82 6f bd 2f a0 e8 bd ac 93 44 3d 1f a3 79 bd
       -0.058473606 -0.113586776 0.047992393 -0.06094658
000160 1e d3 07 3e 5b a2 f3 3c 0b 8b 13 3e 7f 8b 22 3e
       0.13264129 0.029740503 0.1440851 0.15873526
000170 80 86 20 bd 56 23 84 bc 39 35 43 3d 5e e9 02 3e
       -0.03919077 -0.01613013 0.04765818 0.12784335
000180 83 f6 96 3d fd 0c dc bc 1e 86 4b 3e cf cd 39 80
       0.07371237 -0.026861662 0.1987538 -5.308453e-39
000190 13 c9 18 00 22 c1 73 00 fc b8 28 00 88 38 13 80
       2.276184e-39 1.0630365e-38 3.73978e-39 -1.765154e-39
0001a0 50 b8 37 00 df 91 45 00 31 af 0e 00 90 a3 35 00
       5.117071e-39 6.388978e-39 1.348544e-39 4.925956e-39
0001b0 4c d3 31 bd 99 df 49 be 6c d1 1c 3e cc 8a d2 bd
       -0.0434144 -0.19714202 0.15314263 -0.1028038
0001c0 56 4c 83 be 61 31 5a 3e 16 47 8c 3e f9 eb 69 3e
       -0.25644177 0.21307899 0.27397984 0.22843923
0001d0 ac 2f 1a be d9 32 2f 00 23 34 03 00 31 bb 15 00
       -0.15057248 4.334509e-39 2.9421e-40 1.995697e-39
0001e0 b9 ad 18 00 81 1d 08 80 05 8e 02 00 da a8 29 80
       2.266372e-39 -7.45268e-40 2.34618e-40 -3.825828e-39
0001f0 28 33 1c 80 54 a7 0a 80 8c fc ff 3d ee 28 61 be
       -2.589745e-39 -9.78381e-40 0.12499341 -0.2198827
000200 79 24 a5 be 7e 5a 1c bd 5c 37 ab 3e c2 1d c2 3d
       -0.3225439 -0.038172238 0.33440673 0.09478332
000210 5f 8c 01 3e 8f 51 8b 3e 0d a3 b2 3a a6 7b 08 bd
       0.12651204 0.27210662 0.0013628915 -0.033321045
000220 d6 c7 fd 3c 7b 9a 4f 3b 36 16 66 bd 56 14 9a bd
       0.030979078 0.003167777 -0.056173526 -0.0752341
000230 4e 3d 23 3e 18 9a 82 be bd 22 ab be 9c d7 25 be
       0.15941355 -0.2550819 -0.3342494 -0.1619553
000240 8d 8e 7d 3d 6b 28 83 be d6 02 3a bd ce a4 a3 3e
       0.061903525 -0.25616774 -0.04541286 0.31961673
000250 dc 0c e4 3d 18 73 45 3e 9e 49 46 be f8 09 af 3d
       0.11135265 0.19282186 -0.1936402 0.08546823
000260 db 36 e9 bc ef 93 09 3e 04 62 90 39 7c ce 20 3f
       -0.02846854 0.13435338 0.00027538848 0.6281507
000270 2f a3 9b be 4d b4 70 be ae 38 c2 be d5 06 a4 3d
       -0.30397937 -0.2350628 -0.37933868 0.080091156
000280 73 fd 2d 3e a3 0a 4e 3d 74 75 86 3e e8 32 13 3e
       0.16991214 0.050303113 0.26261485 0.14374888
000290 32 77 9c bd 56 01 a8 3d fa e4 f2 be 13 72 16 bd
       -0.07639922 0.0820338 -0.4744032 -0.036729883
0002a0 46 d4 30 3e 84 71 66 3d a4 2e a4 3e 9b 99 60 3e
       0.17268476 0.0562606 0.32066834 0.21933596
0002b0 d4 5f 81 3d 1b 70 cb bd ce 60 d0 bd dc 24 0d bf
       0.06317106 -0.09933492 -0.10174714 -0.5513437
0002c0 e0 d3 70 3d 59 f4 20 be 78 bd 8e 3b 29 e5 0d 3c
       0.05879581 -0.15718211 0.0043560825 0.008660593
0002d0 a9 ed 0b be b2 19 31 be 51 c9 75 3d 3c d8 84 3d
       -0.13664879 -0.17294958 0.060006443 0.06486556
0002e0 80 ee 94 bd fe 02 3a 3c 62 52 c9 bd 51 b1 af be
       -0.07272053 0.011353252 -0.098301664 -0.3431497
0002f0 7e 69 f0 bd 1c 2a 0a 80 ef 9a 14 80 bc 50 03 00
       -0.11738871 -9.33461e-40 -1.89229e-39 3.04469e-40
000300 bf b4 22 00 2d d9 19 00 02 ac 40 00 07 45 19 80
       3.187246e-39 2.373795e-39 5.939177e-39 -2.32065e-39
000310 7c 76 1b 00 17 bd 50 80 71 31 62 3d 65 22 4e 3d
       2.522063e-39 -7.414672e-39 0.055222932 0.05032577
000320 ce 87 20 3d bb ca 45 3e 70 3f 6a 3e b1 16 a9 bd
       0.039192013 0.19315617 0.22875762 -0.08256281
000330 56 ca 1a 3e 22 0c 32 3d 7b 43 02 bd f4 26 16 00
       0.15116248 0.043468602 -0.031802636 2.034355e-39
000340 07 eb 16 00 dd 13 28 00 03 ca 16 00 6d b6 04 00
       2.104693e-39 3.680545e-39 2.092849e-39 4.32784e-40
000350 65 32 14 80 77 b4 22 00 fd bb 01 00 92 1f 2a 80
       -1.854788e-39 3.187145e-39 1.59273e-40 -3.868416e-39
000360 64 14 df 3c bc 01 52 bd 83 cf 00 bd 88 dd a1 bd
       0.027231403 -0.051271185 -0.0314479 -0.07903582
000370 f4 f4 29 be ba eb 25 be cd 0a 14 3e 41 78 c0 3d
       -0.16597348 -0.16203204 0.14457245 0.093979366
000380 0e b1 f1 bd cc 6c 39 bd bb 31 1a 3c 52 37 4f 3e
       -0.118013486 -0.045269772 0.009411271 0.20235947
000390 07 2d 9a 3e 02 3d 6c bc fd b2 06 3d b8 5c d5 b8
       0.30112478 -0.014418842 0.03288554 -0.00010173902
0003a0 52 8c 3d be 1a 86 5a 3a 4e 61 2d 80 f2 b6 00 00
       -0.18510559 0.0008336023 -4.167504e-39 6.5628e-41
0003b0 e1 d1 06 80 00 a6 22 00 42 03 0b 00 8e 76 36 00
       -6.26303e-40 3.181956e-39 1.011359e-39 5.001646e-39
0003c0 c6 ef 0b 80 ad b0 12 00 a8 e5 4a a4 04 a4 05 3d
       -1.096205e-39 1.716418e-39 -4.3996294e-17 0.03262712
0003d0 b7 70 0e bd e9 d7 90 bb 86 84 35 bc 48 e4 9d bd
       -0.034775462 -0.0044202697 -0.011078959 -0.07709557
0003e0 b0 5c da 3d 22 b3 7e be 57 91 82 3d cc a6 a6 bb
       0.1066221 -0.24873021 0.063753776 -0.0050858017
0003f0 55 bc f0 bd ba 3a fd bd 1c a2 89 3d 7e 23 5a 3e
       -0.117546715 -0.12364717 0.06720373 0.21302602

conv3.bias f4 [128]
000000 56 24 e9 bc a2 24 11 3e f8 99 a9 bc 89 7c 2a be
       -0.02845971 0.1417413 -0.0207033 -0.16649069
000010 85 e8 2c b9 62 35 8f 3e ca 70 30 be 29 aa ce 3d
       -0.00016489819 0.27970415 -0.17230526 0.10091049
000020 3e e7 17 be d8 a9 d9 bd 4d 28 1d be 0b 7b ff bc
       -0.14834306 -0.10628098 -0.15347405 -0.031186601
000030 30 fa b5 bd 82 9a ed bd 37 13 8f 3a 04 b4 b1 bc
       -0.0888561 -0.11601736 0.0010915761 -0.021692283
000040 28 cc c8 b8 51 e3 e6 bd 45 20 e3 bc 4c c9 1c bd
       -9.57477e-05 -0.11273826 -0.027725348 -0.03827791
000050 9e 09 2e be 5a c1 06 be 2b cb 23 be 1d 4e 08 be
       -0.16995856 -0.13159695 -0.15995471 -0.13311048
000060 33 7c 0c b7 b2 1f 07 bd e5 f2 95 b9 7d fc 2c bc
       -8.373568e-06 -0.03298921 -0.00028600465 -0.010558245
000070 6a da ba bd 74 59 65 3d a5 46 0b be 06 24 ba bd
       -0.091236904 0.055993512 -0.13601168 -0.09088902
000080 75 d2 9d bd d8 f4 b7 bd 17 90 9b bd 33 0f 55 b9
       -0.07706157 -0.08982247 -0.07595842 -0.00020318925
000090 d6 00 4a 3d 04 f8 72 bd f0 b3 16 be 04 74 02 3c
       0.049317203 -0.059318557 -0.14717078 0.007962231
0000a0 d4 22 15 bb 6b 35 fc bd 5d 4b b5 bd 2c 00 21 3d
       -0.0022756355 -0.12314876 -0.08852265 0.039306805
0000b0 ea b3 96 3d 6a e3 5e be 97 b0 9c bc 61 c3 24 3d
       0.07358535 -0.21766439 -0.019127173 0.04022539
0000c0 89 41 26 be 9c 7f 08 be 18 71 8d 3e 36 c8 9e bd
       -0.16235937 -0.13329929 0.27625346 -0.07753031
0000d0 6a ed 5e 3e 1d bc ce ba 5c 8e cb bd 1e 92 55 ba
       0.21770254 -0.0015772615 -0.09939262 -0.00081470783
0000e0 3a 76 c5 bd 6d c3 02 be 75 55 a5 bd 79 93 02 bc
       -0.096416906 -0.12769862 -0.0807294 -0.0079697305
0000f0 fb 20 3d bd 25 0a 14 be a5 39 0b bd 01 9a 78 3b
       -0.04617403 -0.14456995 -0.03399052 0.003793359
000100 41 0c 16 3e d6 b5 a3 b6 39 fd 1f be 4f d6 a4 3d
       0.14653112 -4.878947e-06 -0.1562394 0.080486886
000110 8d 20 e8 bb 7f 7c 5c be 16 a7 00 be 8a 47 c3 3c
       -0.0070839585 -0.21531866 -0.12563738 0.023837823
000120 58 b4 49 bd 01 e0 7e bd 5f dd 00 bd b1 5e 06 3d
       -0.049244255 -0.062225346 -0.031461116 0.03280515
000130 78 a5 55 b9 a1 f8 9b bd 93 16 14 bd de 09 3d be
       -0.00020374905 -0.076157816 -0.03615434 -0.18460795
000140 f8 35 37 be 03 b6 ac 3c d3 c5 7a be 36 81 b7 bc
       -0.17891681 0.021082884 -0.24489526 -0.02240048
000150 2e 6c 7b bd a4 e0 d2 3c 64 00 3e bc 09 1e 2e bd
       -0.061382465 0.025741883 -0.011596773 -0.042509113
000160 10 43 26 bc e1 8e 70 b5 45 6b 01 bb fb 6a 34 be
       -0.010147825 -8.9614883e-07 -0.0019747776 -0.17618935
000170 c3 2e 82 3d c0 88 82 bd 9f e5 71 bc 9b ff 8f bc
       0.06356575 -0.06373739 -0.014764219 -0.017577937
000180 ce 66 f4 bd 18 68 53 bd 70 ea d6 bd dc 81 0c be
       -0.11933671 -0.051612943 -0.10493934 -0.13721412
000190 f0 1a 28 ba 7e d4 9a bc 80 74 e6 bd 47 93 d6 bc
       -0.00064127054 -0.018900152 -0.11252689 -0.026193274
0001a0 39 17 78 bd ea e6 48 bd 7c ea 73 bd 52 2e 95 3c
       -0.06056902 -0.04904834 -0.059549794 0.018210564
0001b0 17 20 1a be f8 d1 a7 3d 29 2c af 3c 95 02 1e bc
       -0.15051304 0.08194345 0.021383362 -0.00964417
0001c0 73 0e 14 3e 5c d9 de bc 8e 33 c1 bd 68 de d3 bb
       0.14458637 -0.027203254 -0.094336614 -0.006465722
0001d0 68 7e 31 be 45 41 c8 3c c9 15 15 3d 62 d1 5e bd
       -0.17333376 0.024445185 0.03639773 -0.0543989
0001e0 1a 72 ea bd 59 53 b0 bc 64 b8 2a 3e 3d 31 0c be
       -0.114475444 -0.021524118 0.16671902 -0.13690658
0001f0 a3 85 05 bd 59 89 02 bd 62 8e 8f bc f0 ed 0c 3e
       -0.03259815 -0.031869266 -0.017523948 0.13762641

act_conv1.weight f4 [4, 128, 1, 1]
000000 a5 04 3f be 6b 58 63 3a 3a b5 f1 3c 82 d1 98 3e
       -0.18654115 0.0008672538 0.02950536 0.29847342
000010 e5 75 8d 23 a8 de 83 3e 39 7f bd be f4 78 37 3e
       1.5337181e-17 0.2575581 -0.37011126 0.17917234
000020 d2 44 94 3d d8 83 c7 3b 63 67 ef bd 80 96 2f 3e
       0.07239689 0.006088715 -0.11689641 0.17147255
000030 db 43 5e 3b 69 03 17 be 70 4a 44 3e ae f8 0a 3e
       0.0033914957 -0.14747395 0.1916902 0.13571426
000040 74 08 aa 19 c1 06 1d be a0 47 3b bd 51 4c 8a 3a
       1.7581002e-23 -0.15334608 -0.045722604 0.0010551309
000050 f5 4b d8 3d e4 2e 0b 3c 85 37 e0 3b 13 ac 9d be
       0.10561363 0.008495066 0.006842556 -0.30795345
000060 4a 85 28 90 64 42 b4 be 8d da 12 80 5f 2b 0b bb
       -3.323484e-29 -0.35206902 -1.73144e-39 -0.0021235568
000070 f2 1b a2 3c a9 ac 00 be d0 ea 33 be 76 ea 7a bd
       0.019788716 -0.12565865 -0.17570043 -0.061258756
000080 be 28 76 bc 6b 6f 07 be 66 27 74 bd be 42 0b 00
       -0.015024362 -0.13226096 -0.059607886 1.034133e-39
000090 18 f0 aa bd bf 28 66 3b 27 e0 ac be 9a 14 de 3e
       -0.083465755 0.0035119501 -0.33764765 0.43375093
0000a0 62 25 40 32 82 3d 85 3d 03 28 0e be 80 da 03 3e
       1.1184371e-08 0.06505872 -0.13882451 0.1287632
0000b0 19 54 ba be ec a3 ae 3c 06 c9 b9 3d d8 0a 78 3d
       -0.36392286 0.021318398 0.09071545 0.060557216
0000c0 4c 91 11 bf 4e de 94 bd 84 b4 c9 3d 2d 0d 40 3d
       -0.5686233 -0.07268964 0.09848884 0.046887565
0000d0 be 35 68 3e df 53 fb b7 fe 7c 98 3b 54 6b 80 29
       0.22676751 -2.9960587e-05 0.004653572 5.7029603e-14
0000e0 dd 6c eb bd c9 08 a0 bd 2c 3c 8a 3c b9 c5 a7 35
       -0.114953734 -0.07814176 0.016874395 1.2500014e-06
0000f0 29 cf f7 bd 85 78 ac bd c3 4c fb 3d 77 70 2a 3d
       -0.121000595 -0.08421425 0.122705005 0.04161116
000100 03 ed 6f 3e a6 44 0f 84 ce 4c a2 3e aa c7 14 3e
       0.23430257 -1.6841091e-36 0.31699222 0.14529291
000110 66 2f c5 3c b1 3a 74 be 71 5b dc 3c ae 06 11 3e
       0.024070453 -0.23850514 0.026899071 0.14162704
000120 3b 69 0d 3e 7d 02 6c bd 06 60 7a bc 67 1b 87 3d
       0.13809673 -0.05761956 -0.015281683 0.065970235
000130 9c c2 23 80 66 00 9f bd 54 39 83 bc 5f 27 a3 3d
       -3.284055e-39 -0.07763748 -0.016018547 0.07966494
000140 bb 3b 13 be 5d df f2 bd 65 ca 0c 3d 79 3e c8 3d
       -0.14378254 -0.118590094 0.034372706 0.09777541
000150 a0 86 4f be e0 1f 8a 3d fd 6c 00 bc b3 29 95 3c
       -0.20266199 0.06744361 -0.007838485 0.01820836
000160 6b 97 24 be f8 ab bc 30 65 3b 59 b7 70 72 9d bd
       -0.16073386 1.3727677e-09 -1.2948037e-05 -0.07687843
000170 6c 43 4b bd 6b ac 14 bc c2 b7 ca 39 a0 00 47 bb
       -0.049624845 -0.009074311 0.00038665353 -0.0030365363
000180 c8 8c e9 3e e2 bd 83 be a0 86 ec bd ee c3 c5 be
       0.4561522 -0.25730807 -0.11549115 -0.38626045
000190 f4 ad 7c 3a 86 c6 c5 b6 d7 0f 29 be 4b d1 fa 3d
       0.0009638958 -5.8941687e-06 -0.16509949 0.12246951
0001a0 4a 92 8d 3c 49 67 a2 be d9 4c 46 bd 7b c9 e9 bc
       0.01728167 -0.31719425 -0.04841313 -0.028538456
0001b0 62 b2 f9 bd 3c 7b fc 3d c7 0e 7f bd 26 46 06 3e
       -0.12192227 0.123281926 -0.062269952 0.13112697
0001c0 99 fe e7 bd b9 80 9f 3b 80 c9 fc 3d 32 1d 96 3b
       -0.113278575 0.00486764 0.123431206 0.004581117
0001d0 4a 38 0d bc ec 57 8f 3c f8 e4 e2 3d e1 e6 0c ba
       -0.008619377 0.01749798 0.110788286 -0.000537498
0001e0 db 80 7a be e1 5a cc 3c 3d 5b bb 3e b5 fa 4d 3d
       -0.24463217 0.024945678 0.36593047 0.05028792
0001f0 5f 73 cd bc 14 f2 b6 be 94 00 b7 bc d1 ae b4 3e
       -0.025079427 -0.35731566 -0.022339143 0.35289624
000200 49 c8 53 3e 8c 01 28 3e 6a 82 fb 3a 76 d5 cd bd
       0.20681871 0.1640684 0.0019188647 -0.1005048
000210 7e e5 94 b1 00 ac 28 be 46 48 4e bd 67 53 a3 be
       -4.333457e-09 -0.16471863 -0.050361894 -0.31899568
000220 90 68 e8 bd 91 bb a2 bd c6 dd 25 bd b9 28 29 3d
       -0.11348069 -0.07945932 -0.040494703 0.0412986
000230 40 9f c8 3d 83 b1 8c bd 0a 16 47 be f8 50 87 3e
       0.097959995 -0.06869795 -0.19442001 0.26428962
000240 0f b1 da 96 b1 9d 61 be 87 c2 09 3c 44 24 e0 39
       -3.533154e-25 -0.22032811 0.008408195 0.0004275163
000250 4c 33 aa bd 53 e4 4f be ab b2 f2 bc a6 32 8c 3d
       -0.08310565 -0.20301943 -0.029626211 0.06845598
000260 fb 73 04 80 92 24 da 3c 50 98 33 80 ef ee 1d bc
       -4.08948e-40 0.026628766 -4.73825e-39 -0.009639486
000270 b9 ce 8c be f6 59 e0 3d 05 3c 42 bd 56 fb 80 3c
       -0.27501467 0.10954659 -0.04742052 0.015744846
000280 f3 ec ad bd 0d 89 0f be 87 7f 66 3d 67 b8 1d 00
       -0.0849246 -0.14017124 0.056273963 2.72938e-39
000290 2c 9a 0c 3d 51 77 a2 3c 94 50 19 be c1 60 96 be
       0.034326717 0.019832285 -0.14972144 -0.29370692
0002a0 07 43 b5 a9 a3 1d 95 ba c0 fa 96 3c 3c 8b 0b 3f
       -8.049642e-14 -0.001137663 0.018430114 0.5450933
0002b0 a8 c9 bb 3e 17 2b 1c bc 29 a5 97 3d 9b ec 89 3c
       0.3667729 -0.009531758 0.07404549 0.016836455
0002c0 92 45 ed 3d 4d 52 25 bd 7b 9a 73 3e af 28 80 3e
       0.11585535 -0.04036169 0.23789398 0.2503104
0002d0 cc f4 f5 bd 88 b8 3a 37 c8 df 90 bd bb 5d 1d 99
       -0.12009582 1.11294285e-05 -0.07073933 -8.1356385e-24
0002e0 89 a0 c1 3c 84 86 82 3e af 99 2b bd 4a b8 df b7
       0.02363612 0.25493252 -0.04189461 -2.6669488e-05
0002f0 c4 61 51 be 26 0b b9 3e b5 3d b6 3d 5f 09 05 3d
       -0.20447451 0.36141318 0.088984884 0.03247964
000300 e4 7c 40 3e bc 1b 0e 0e ae 53 8c 3e c6 d1 b7 bb
       0.18797642 1.7516205e-30 0.27407593 -0.0056097237
000310 c2 65 cc b8 35 cc 8c be 00 20 5d be a7 c0 6f bc
       -9.746432e-05 -0.27499548 -0.21594238 -0.014633334
000320 32 63 89 3e fc 8e 9a 3c b9 98 cf bc 43 8f cb bd
       0.26833493 0.018867008 -0.025341379 -0.099394344
000330 af 85 2b 00 bf 5b 4c be dc 55 3e 3c 6b c4 3d 3e
       3.996883e-39 -0.19956873 0.01161715 0.18531959
000340 d4 22 1f bc 31 34 84 bd 9d c2 b8 bd 78 f7 81 3d
       -0.0097128935 -0.06455267 -0.090214945 0.06346029
000350 9b c9 81 bd 6d e4 b4 bd fb b4 9c bc 7c cc 2c bd
       -0.06337281 -0.08832631 -0.019129267 -0.0421872
000360 8b 62 20 3d d3 c4 b9 bc be 09 ce 34 4b 5f 1d be
       0.039156478 -0.02267686 3.8377578e-07 -0.15368383
000370 3b fb 97 bd da 23 50 3c b7 6f 06 b8 18 38 5c bb
       -0.07420965 0.01270386 -3.2052132e-05 -0.003360277
000380 a1 bf e1 ba 7b 63 00 bf dc 0a 84 be 77 58 e0 bd
       -0.0017223248 -0.50151795 -0.25789535 -0.10954373
000390 18 06 55 28 45 3c bc b8 52 f7 86 3e 48 dd aa bd
       1.1825197e-14 -8.975765e-05 0.26360565 -0.08342987
0003a0 6d 29 fd bd 19 d4 33 be e6 53 91 3d b4 d1 8b be
       -0.12361417 -0.17561378 0.070960805 -0.27308428
0003b0 ca f3 c5 3e ec 99 76 3e d8 c0 4b 3e 68 63 c8 be
       0.3866256 0.24082154 0.19897783 -0.3913834
0003c0 43 c0 81 3e 5d a7 18 3d 4b f8 31 3c d3 59 54 bb
       0.25341997 0.037268985 0.01086242 -0.0032402172
0003d0 7a a0 99 3c d6 d2 2e 3e 20 d0 c1 bd 83 61 62 be
       0.018753279 0.17072615 -0.09463525 -0.2210751
0003e0 1d 62 7b bc 73 70 5d bc 51 68 1d bd e0 84 28 3e
       -0.015343216 -0.0135155795 -0.038429562 0.16456938
0003f0 1c e3 7f bd 6d 57 c6 3d b7 22 53 bd d4 a6 63 be
       -0.062472448 0.09684644 -0.05154678 -0.22231609

act_conv1.bias f4 [4]
000000 71 c1 df 3e cc 0b b8 3d 80 13 a4 3d 5c 5a 99 bd
       0.43702272 0.08986625 0.08011532 -0.07487938

act_fc1.weight f4 [36, 144]
000000 4e c6 83 bd b3 5a 34 3d 97 d7 ea bd 6f 57 89 bd
       -0.06434308 0.04403181 -0.11466902 -0.0670613
000010 3b d7 e6 bd ef c4 df bd 15 79 c8 3d a2 94 52 bb
       -0.11271521 -0.10926234 0.097887196 -0.003213205
000020 92 01 3b bd cf 04 80 3c ea e6 9f bd 8a 0f b9 be
       -0.045655794 0.015627293 -0.07807715 -0.36144668
000030 f7 05 cc bd 5c e5 23 be de 82 a2 3d d4 c1 46 3e
       -0.09962075 -0.16005462 0.07935117 0.19409877
000040 eb 4c 71 bd 6b bc 52 be 09 5d 24 be 46 64 8f 3d
       -0.058911245 -0.20579688 -0.16051115 0.070015475
000050 5b b6 f5 3d a2 a5 dd bd 76 ca 5d be f1 a8 a1 be
       0.11997672 -0.108226076 -0.21659264 -0.31574205
000060 83 dc d3 3e fe c6 3f be 72 00 06 be c1 fd 8c be
       0.41379175 -0.18728253 -0.13086107 -0.2753735
000070 b6 ad 00 be 3f fa 76 be c8 00 30 3e ba bd d0 3d
       -0.12566265 -0.24118899 0.17187798 0.101924375
000080 23 49 17 be 2b 82 de bd 30 94 6e bd 6a 29 a3 be
       -0.14773993 -0.10864671 -0.05824679 -0.31867534
000090 c8 cb cc 3d ac 85 80 bc 37 27 43 bd eb d6 e1 3d
       0.09999806 -0.01568874 -0.04764482 0.110273205
0000a0 f3 1d a1 3e 8a c5 bf 3e 47 d6 40 bc b3 54 bc bc
       0.31468162 0.37455398 -0.011769838 -0.022989606
0000b0 75 56 09 be 9c 94 94 bd 88 21 0d bc 20 82 80 bc
       -0.13411887 -0.072549075 -0.0086139515 -0.015687048
0000c0 9d bf 89 3d c1 39 5e bd d7 c6 11 3e 15 05 81 3c
       0.067260005 -0.054254297 0.14236008 0.015749494
0000d0 c6 44 78 3d b9 bf 56 be 52 98 58 be ae a7 f6 3d
       0.060612462 -0.20971574 -0.21151856 0.12043701
0000e0 85 bf 8c be 23 38 75 bd 52 1f a6 bd 25 19 41 bd
       -0.27489868 -0.05986799 -0.081114426 -0.04714312
0000f0 40 d8 ab bd 8b 63 cc 3d a8 55 a9 3e 04 0b c7 bd
       -0.08390856 0.09979924 0.33073163 -0.09718898
000100 0f d4 15 be 0d c4 8b be e9 92 9f be 5a 43 6f bd
       -0.14631675 -0.27298012 -0.3116677 -0.05841384
000110 60 2b 97 3d ab d8 16 3d 3e 87 df bb a1 44 f0 3d
       0.0738132 0.036827724 -0.006821542 0.1173184
000120 57 58 a1 bd c0 11 f8 bd 55 2f e6 bc 0f a9 b5 3c
       -0.078781776 -0.121127605 -0.028098742 0.02217534
000130 1a 9d 37 bd e1 4d 5e 3e ba e6 f7 bc a1 1a f0 bd
       -0.044827558 0.21709396 -0.030261386 -0.11723829
000140 76 31 a7 bd fb ba d8 3c 76 c1 ea bc ae 0f 50 3e
       -0.08163731 0.026456347 -0.028656702 0.20318481
000150 cf dc 21 3d ba ee 6d be 35 79 11 3e dc 95 a1 3d
       0.03951722 -0.23235598 0.14206393 0.078899115
000160 f0 b5 17 3c c6 40 a7 bc 03 ef 01 3e 68 92 92 3e
       0.009259686 -0.020416629 0.12688832 0.28627324
000170 85 6d b7 bd cb 07 43 be 22 08 29 3b fe 88 8d 3d
       -0.08956436 -0.19045942 0.00257922 0.06910895
000180 ed d2 ac 3e 84 e3 c4 bd b4 f3 b8 3d 64 5c a5 bd
       0.33754674 -0.09613708 0.09030858 -0.08074263
000190 82 fa 98 3e ba ea 2c bd 22 a4 e0 be c4 17 ca ba
       0.29878622 -0.04221604 -0.43875223 -0.001541846
0001a0 da 10 86 3e 57 a6 3f 3d 65 7b c8 3a d7 23 56 bc
       0.26184732 0.046789493 0.0015295563 -0.013070068
0001b0 a5 b6 24 00 43 d7 8a ac c8 b3 7c af e6 34 34 b1
       3.371598e-39 -3.9460948e-12 -2.2983138e-10 -2.6223517e-09
0001c0 68 a4 df b0 34 c6 c1 af 12 65 eb 99 7f 4d 7d b4
       -1.6272113e-09 -3.5247327e-10 -2.4339252e-23 -2.3590654e-07
0001d0 dc b1 36 b5 a6 f8 a8 b6 22 5f 30 b6 0e 9e 4c b4
       -6.8059103e-07 -5.0357366e-06 -2.6281418e-06 -1.905648e-07
0001e0 0c b7 0d 2e a3 10 a0 37 08 ef de 38 16 89 87 b8
       3.2222267e-11 1.9081233e-05 0.00010630308 -6.462836e-05
0001f0 24 fb 25 b7 f1 6c c1 b6 05 1a 57 ad 1c a0 26 b8
       -9.89324e-06 -5.7645307e-06 -1.22271126e-11 -3.9726598e-05
000200 d5 b9 87 37 ba c8 93 37 01 bd 92 37 cc 52 6e b6
       1.6179789e-05 1.7617236e-05 1.7492568e-05 -3.5512958e-06
000210 93 51 ba 2a e9 86 db 36 bf 7d a8 37 df e8 f8 36
       3.309684e-13 6.542414e-06 2.0085716e-05 7.4180857e-06
000220 e0 95 49 36 3e f7 81 b4 97 bd 13 1b ef 66 1c b2
       3.0038573e-06 -2.4208015e-07 1.2220815e-22 -9.1037995e-09
000230 2e 6e 75 b3 1e 15 b8 b2 02 f0 14 b2 63 a5 c3 ac
       -5.7143716e-08 -2.1430022e-08 -8.669305e-09 -5.560595e-12
000240 12 a0 6b 3d 04 43 af 3d 85 f4 0f 3e 89 77 87 bc
       0.0575257 0.08557704 0.1405812 -0.016536491
000250 cb 11 8c bd 58 37 6b bc d7 b0 29 bd f3 69 78 bd
       -0.06839331 -0.014356457 -0.041428413 -0.060647916
000260 14 ab db bd cb 39 b8 bb 7d ad ad bd 12 34 43 3e
       -0.1072599 -0.005622124 -0.08480356 0.19062832
000270 80 90 60 3e ad ce 20 3c 0f 03 0c be e0 2f 85 3d
       0.21930122 0.0098149 -0.13673042 0.06503272
000280 5c ee 7d 3e 8e ce 11 bd 5d b0 00 3d d1 fd 8b be
       0.24797958 -0.035597377 0.031418193 -0.27342084
000290 cb a6 40 3c 84 41 87 3e 8e 5b d2 bd 01 77 83 be
       0.011758517 0.26417172 -0.10271369 -0.2567673
0002a0 0c 69 73 3c 17 e3 0d 3e 7e e9 b7 be 2f 33 cc bd
       0.014856588 0.13856159 -0.35920328 -0.099707
0002b0 3a 25 13 be 46 b7 32 be b1 71 af bf 32 4c 4d 3e
       -0.1436967 -0.17452726 -1.3706571 0.20048597
0002c0 92 a2 38 be fa dc 3b be b6 d6 6f be 6c 8f 4b 3d
       -0.18030766 -0.18346015 -0.2342175 0.049697325
0002d0 3c a4 86 be bf 84 6a bd 08 70 c6 bc e4 3a 5f 3d
       -0.26297176 -0.057255503 -0.024223343 0.05449952
0002e0 7f 49 0a bd 00 51 a2 bd a3 ac 8a 3d 89 71 bf 3d
       -0.033761498 -0.07925606 0.06771209 0.09347827
0002f0 ce 12 d2 ba 92 ea 8f be 63 4c 27 3d fa 85 3e bc
       -0.0016027333 -0.2810865 0.040844332 -0.011628622
000300 b0 09 16 3e 14 90 f1 bd f3 00 0f be f5 10 9f 3d
       0.14652133 -0.11795059 -0.13965206 0.07766906
000310 43 cf 55 bd 8e c1 7e 39 9f 6b 57 be e3 4a 05 be
       -0.052199613 0.00024295432 -0.21037148 -0.13016848
000320 22 03 34 ba 67 28 a3 be 81 72 80 be fa 0d 48 3e
       -0.0006866922 -0.31866762 -0.2508736 0.19536582
000330 06 06 59 3a 7c 9a 88 3e 0c 33 8f bd ca 48 5a 3e
       0.00082787906 0.26680362 -0.06992158 0.2131683
000340 18 4a 3e be 9e bc 2f 3e 70 5e e8 bd d4 01 6b 3d
       -0.18582952 0.17161795 -0.113461375 0.05737479
000350 d9 67 2a 3d 5a 02 f6 bc cf 9e 17 bd 3e f2 f4 3d
       0.041602943 -0.030030418 -0.037016686 0.119602665
000360 06 15 83 bc 08 ff 86 be 47 1d 41 3e 2a 69 9c bd
       -0.016001236 -0.26366448 0.18858825 -0.07637246
000370 db 24 6c bd 92 d9 07 bd 79 db 91 bd 24 c2 21 3e
       -0.057652336 -0.033166476 -0.07121939 0.15796715
000380 3a e9 58 bc a9 28 9e bd 31 72 5b be d8 34 5a bb
       -0.013239199 -0.07722599 -0.2143028 -0.0033295657
000390 84 4a 88 bd e3 ca 96 bd d2 e1 c7 bd 7c f8 33 3e
       -0.06654838 -0.07362916 -0.09759869 0.17575258
0003a0 a3 75 7c 3d 6d 62 fa bd 3f 45 06 bd 7a 28 02 3e
       0.061635625 -0.122258045 -0.032780882 0.12710753
0003b0 c3 20 8a 3d aa 0a dd bb 42 66 86 bd da cc 9c be
       0.0674453 -0.006745656 -0.06562473 -0.3062504
0003c0 61 66 84 bd ae c7 7f 3e 80 ba 87 bd 6d f3 39 3b
       -0.0646484 0.24978516 -0.06627369 0.0028373853
0003d0 f1 cc 57 bd e0 df a5 3d 45 b7 2b be 84 27 f1 be
       -0.05268568 0.080993414 -0.1676913 -0.4710046
0003e0 41 ed 10 3e fa 6d 10 3f 5f 56 72 3e c9 c0 6b be
       0.14153005 0.5641781 0.2366576 -0.2302276
0003f0 db 49 69 96 ef 96 ec 32 d9 9c 85 37 32 b6 92 38
       -1.8844895e-25 2.7542653e-08 1.5927873e-05 6.995759e-05

act_fc1.bias f4 [36]
000000 f7 ca 34 bf cd f9 b3 be a8 51 36 bf 12 44 e1 be
       -0.706222 -0.3515152 -0.7121835 -0.43997246
000010 21 91 03 be 7e b4 1d bf 43 33 d0 be 1f d8 ea bc
       -0.12848331 -0.61603534 -0.4066411 -0.028667508
000020 90 79 b9 3b 2c 60 f2 3e 1c 6a f2 3d 22 e9 8b be
       0.0056602433 0.47338998 0.11836645 -0.27326304
000030 09 6c ff be 15 3a ae 3d 84 bb 2a 3f eb c3 71 3f
       -0.49887112 0.08507172 0.66692376 0.9443957
000040 47 0f b6 3e ec bd 0b bf c8 47 08 bf c1 63 85 bd
       0.3555853 -0.5458667 -0.5323453 -0.06513167
000050 f0 c3 17 3f 9a 1e 55 3f 11 91 1d 3e dc 96 30 bf
       0.5928335 0.8324982 0.1538737 -0.68980193
000060 b2 1e 46 be 76 40 1f bb e9 5b f5 bc 1c 74 4e 3e
       -0.19347647 -0.0024299896 -0.029951053 0.2016148
000070 52 f2 78 3d b7 59 c0 be 31 b5 2a bf 36 e8 ca be
       0.06077797 -0.37568447 -0.66682726 -0.39630288
000080 07 bd 1b bf 0d 65 ae be 35 4d b8 be 52 a8 3f bf
       -0.6083531 -0.3406147 -0.35996404 -0.7486621

val_conv1.weight f4 [2, 128, 1, 1]
000000 50 d5 3e 3e 27 ad 86 3e 0b ea c6 3d bf de 62 3e
       0.1863606 0.2630398 0.09712609 0.22155283
000010 31 0c a1 b7 84 c2 ab bd 53 86 3d 3e dc 1e ec 3c
       -1.9198373e-05 -0.0838671 0.18508272 0.028823309
000020 4e 45 04 3e 00 39 13 be 38 f0 04 3e 0d fd b7 3d
       0.12917063 -0.14377213 0.12982261 0.089838125
000030 33 59 c2 3e 21 8f f2 bd f9 0b 00 be 13 ae 74 be
       0.3795868 -0.11843706 -0.12504567 -0.23894529
000040 6e e7 62 21 06 4d 10 3e 26 f8 ed 3c 97 08 c1 3c
       7.6878073e-19 0.14091882 0.02904899 0.023563666
000050 7e ea d0 bd f5 29 6f bd d3 d3 2c bd 92 7b 0b 3e
       -0.10200976 -0.058389623 -0.0421942 0.13621357
000060 96 6e 31 ad f8 c6 6f bd c7 74 1a 00 01 b8 a3 3a
       -1.008584e-11 -0.05853936 2.429615e-39 0.001249075
000070 c3 7e 3f 3e 22 18 03 3e 68 23 12 be 42 7c 5e 3c
       0.187007 0.12802175 -0.14271319 0.01357943
000080 19 54 04 3e ea 6d ce bd 26 a2 4d 3e c3 ed e8 07
       0.12922706 -0.10079558 0.20081386 3.5047224e-34
000090 99 89 a1 3d bc 31 fb 3c da 6b 8b bd a5 27 cb 3c
       0.07887573 0.030663364 -0.068076804 0.024799177
0000a0 84 e8 8a ba 10 dc 9e 3e 5a 6c a1 bd be fb e1 3d
       -0.001059786 0.3102727 -0.078819945 0.11034344
0000b0 db 51 a6 be c0 6b 88 3e 0d ee 1c 3c 41 60 2d 3e
       -0.32484326 0.26644707 0.00957824 0.16931249
0000c0 a6 2a 37 3e 86 2e 2d 3e 55 b1 3f 3e 24 99 62 be
       0.17887363 0.16912279 0.1871999 -0.22128731
0000d0 ec ad 0f be db 84 33 3c f3 fd ba bc f2 c2 33 39
       -0.1403119 0.010956968 -0.02282617 0.00017143393
0000e0 c6 c1 bf bd ae 6c 3a 3e 0c 16 17 3f 52 f3 a4 3b
       -0.09363131 0.1820552 0.59018016 0.005033889
0000f0 64 f3 6c bd c8 e9 a6 bc e2 37 3c 3e a5 96 bd be
       -0.057849303 -0.020375147 0.18380693 -0.37028995
000100 8f f8 0e 3e 0b f0 30 00 26 48 ef 3d 08 2e a2 3d
       0.13962005 4.494215e-39 0.11683683 0.07918936
000110 c8 a1 21 bc a2 f7 29 be fe d4 9f be 67 7f a1 3b
       -0.009865232 -0.1659837 -0.31217188 0.0049285176
000120 7c bd af be 79 6a ca 3b 97 f3 ac 3c 47 32 90 bd
       -0.34324253 0.0061772433 0.021112246 -0.0704084
000130 e1 6b 31 80 9a 5a 87 bd 0c 63 f9 3c 73 b2 7c bd
       -4.538639e-39 -0.06609078 0.030442737 -0.06169362
000140 e8 52 10 bd 57 5f a6 be 9e f3 f1 3c fb c5 90 be
       -0.035235316 -0.32494614 0.029535111 -0.28276047
000150 ef e1 7a 3d c1 c3 26 be 5f eb 0b 3d 77 41 87 3a
       0.061250623 -0.16285612 0.034160014 0.0010319193
000160 a3 b5 06 3c 80 94 a7 b8 a0 79 d4 30 ef 8e 02 3e
       0.0082220165 -7.990841e-05 1.5459598e-09 0.12749837
000170 9c b8 09 be 14 5c 8f 3d 25 1b 04 3d 7d 56 52 3c
       -0.13449329 0.069999844 0.03225245 0.012838003
000180 51 7d d3 3d 05 20 9c 3e fe b3 c0 3c 26 12 95 3d
       0.103266366 0.3049318 0.023523327 0.07278852
000190 19 88 b7 36 49 bc 42 3a be 36 e2 ba d1 a3 77 3e
       5.469669e-06 0.00074285694 -0.0017258746 0.24183585
0001a0 49 3d f4 bc 6a 9e 4c 3d 5c eb 98 be da 9e bd bd
       -0.02981438 0.049955763 -0.29867065 -0.09258814
0001b0 1a 3f ce 3b d1 88 8a 3e 05 e2 9a be 58 cd c8 3d
       0.0062941434 0.27057508 -0.30250564 0.09804791
0001c0 17 9b 8f 3e 7a b5 a3 3e 81 45 41 be 8d bf a5 bb
       0.28048012 0.31974393 -0.1887417 -0.005058235
0001d0 88 5b 1d be 6c 02 18 3e 32 34 cb bd b4 89 4f 3e
       -0.15366948 0.14844674 -0.09922065 0.20267373
0001e0 b8 06 85 be 0c ee b1 3c e0 02 1f 3c 7a b8 8a bd
       -0.25981688 0.021719955 0.009705275 -0.06773467
0001f0 56 b9 10 3b d2 d4 47 3e cb 10 24 3c 7a 2b 43 3e
       0.0022083125 0.19514778 0.010013769 0.19059554
000200 cd a2 1f be 77 42 ae be 9b 32 80 3d 35 77 bf be
       -0.15589447 -0.34035084 0.06259652 -0.37395635
000210 e5 39 31 80 89 70 85 be 12 25 64 bd 4c b4 66 3e
       -4.520708e-39 -0.2606242 -0.055699416 0.22529715
000220 8a 48 9f 3e 1d e8 54 be c4 5f c0 be bb b4 96 be
       0.3111003 -0.20791669 -0.37573063 -0.2943476
000230 89 f1 0e 3e 92 fd 95 be 17 57 ea 3c 17 82 a1 be
       0.13959326 -0.2929502 0.02860598 -0.31544563
000240 89 f2 07 ae 72 6b 4a 3e 9a 6f d6 bc 21 ef 7f bb
       -3.091086e-11 0.1976755 -0.026176263 -0.0039052444
000250 4d 9f 91 3e de 71 d7 3c f3 73 18 3f 51 c2 aa be
       0.2844185 0.026299413 0.59551924 -0.33351377
000260 4a 60 0c b4 54 b3 6f 3d 4f a6 5f b3 91 2b 1f b9
       -1.3073546e-07 0.05852063 -5.207249e-08 -0.00015179651
000270 26 ed 3e 3e a3 f7 c9 be 92 a2 f4 bd d2 32 b7 bc
       0.18645152 -0.39446744 -0.1194507 -0.0223631
000280 a7 b3 20 3e 2f 41 c6 be d0 9c ae 3d da c1 88 af
       0.15693532 -0.38721606 0.08526003 -2.4875996e-10
000290 9f 64 9c be 93 33 1e bc ea 25 d4 3d d8 0a 9e bd
       -0.30545518 -0.009655851 0.10358794 -0.07716912
0002a0 68 56 b5 3b 51 cb 8a be 28 7b ce 3d 7d 37 b8 3d
       0.005533982 -0.27108243 0.10082084 0.089949585
0002b0 fe 10 01 3d 2b dc ef be 63 8e 8e be 0d df 46 3e
       0.031510346 -0.46847662 -0.27843007 0.19421025
0002c0 0f eb 0d be 1a 84 0c bf a9 9f c1 be f1 8c 7f bb
       -0.13859199 -0.5488907 -0.37817124 -0.003899392
0002d0 ab e4 c8 bb ff 1a 82 3b 7d b7 3d 3d 49 90 18 a6
       -0.006130775 0.0039705033 0.046317566 -5.2931137e-16
0002e0 0f 3b 82 3e dc 0d 75 3e cc 87 ae 3c fc dc 00 bb
       0.25435683 0.23931068 0.021304987 -0.0019662967
0002f0 35 50 34 3e 4a 74 ad 3d 2c e5 11 3e 2a 4b bf 3d
       0.17608722 0.08469446 0.14247578 0.09340508
000300 51 72 51 3e ff 0b c2 bb c9 9c 56 3e 91 48 d8 bc
       0.20453764 -0.00592184 0.20958246 -0.02640179
000310 47 fb 1c bc 85 69 33 3e 27 d0 2f 3e f0 84 93 3e
       -0.009581394 0.17520721 0.17169248 0.2881236
000320 91 11 e5 3d f0 d1 15 bc 59 8e a8 bc 53 61 40 3e
       0.11184991 -0.009144291 -0.02057569 0.18787126
000330 6f d1 1a 8e 39 45 8f 3c e6 85 09 bd 25 cc 2e 3e
       -1.9082804e-30 0.017489063 -0.03357496 0.17070062
000340 10 85 ba be 95 e6 80 bd be 31 fe be c7 d4 20 3d
       -0.36429644 -0.0629398 -0.49647325 0.03926542
000350 ab 9e c1 be 20 1e c5 3d b7 46 a8 bc 3c 8e 17 bd
       -0.37816367 0.096248865 -0.020541532 -0.03700088
000360 40 fa ce be 84 19 2a 00 a9 e7 0e ba bd 26 f8 be
       -0.404253 3.866244e-39 -0.000545139 -0.48467055
000370 66 b8 82 be 4e 12 80 be 54 c7 3f bb d6 75 06 bd
       -0.2553131 -0.25013965 -0.0029263096 -0.03282722
000380 24 e5 d3 3d 26 20 b9 be 4e 3c 4d 3e 20 ee b8 be
       0.103464395 -0.3615734 0.20042536 -0.36119175
000390 84 09 55 bc 44 95 20 bc 73 a3 ef 3d 19 6e e3 be
       -0.013002757 -0.009801213 0.11701097 -0.44419935
0003a0 d9 63 7c be bc 38 b5 3d cb e4 2f bc 1b 89 97 3c
       -0.24647464 0.08848712 -0.010735701 0.018497994
0003b0 83 ec 94 3e e7 97 ca be da d9 87 3d 8b bd ba 3d
       0.29086694 -0.39569017 0.06633349 0.09118184
0003c0 c4 55 89 3e e0 0e 64 3d 20 39 02 3e 4f 90 ec 3b
       0.26823246 0.05567825 0.12717104 0.0072193514
0003d0 f8 a7 b5 3e 66 e6 d7 be 2b aa e9 bc a3 27 5f 3e
       0.35479712 -0.42167968 -0.028523525 0.21792464
0003e0 7f b9 30 3e 9f 02 6b 3c 50 0a 1f bd fd 42 cf 3d
       0.17258261 0.014343887 -0.038828194 0.10120199
0003f0 b1 f7 1f bc 1f 9b 20 be 0e cc c1 bb 17 60 7c bd
       -0.009763644 -0.15684174 -0.005914218 -0.061615076

val_conv1.bias f4 [2]
000000 4d 06 47 be 6e 2d 86 3d
       -0.19435997 0.06551634
